course3/examples/algo/homework/critic_1500.pth (torch, 3231 bytes, 4 tensors)

linear_in.weight f4 [64, 4]
-0.46890983 3.0435615 1.5521786 -1.222742 1.2553384 1.6550959 1.8214053 1.6636996
0.07249782 2.6828673 4.91593 1.4520597 -7.221167 -2.2971895 -4.5251102 -1.8742354
1.6703241 1.2410386 1.789584 0.8428133 -3.0899332 -2.8702102 -9.571637 -3.029241
-2.4746861 -1.5719627 -2.511689 -1.5436938 1.0413009 1.8657347 2.859518 1.7808607
9.210293 0.7935503 -5.7087812 -0.8221189 -1.2157665 -1.3242718 8.685574 1.4824275
2.484735 2.2610896 3.3101623 2.0618799 -0.21893029 0.31475326 -0.86333144 0.38783452
1.1775417 1.1498015 0.9497136 0.611631 -1.6486807 -0.49415115 7.01637 0.5901683
1.0843714 1.8694631 2.4266615 -0.27203482 0.646905 1.6507969 3.221895 1.5467721
1.2458992 -0.9625112 3.9097292 0.29213288 -5.3398886 -2.3188653 -1.6718584 -0.44835514
1.9422184 2.3795314 6.1697125 1.3041307 6.828957 4.761395 12.616967 3.7722447
2.5643406 3.2961135 6.7696214 3.1827238 1.1672686 4.302492 12.38855 4.404101
-4.471313 -0.9710251 -5.9964314 -1.2205815 4.1632047 0.26995394 -5.6461444 -0.1822871
8.003367 1.5039872 -4.1102495 -0.16283153 2.5641582 0.8643997 5.9122734 0.6700243
1.388165 1.2509943 3.9116428 1.08055 1.8627468 1.168177 2.4192293 1.3093953
0.16554445 0.36949405 11.445832 0.41119304 4.9903374 -0.12126256 -0.51041263 -0.53847253
-7.0037937 0.24399191 1.5380784 0.9174358 0.21053493 0.7056504 0.6184557 -0.09813158
0.025331562 -0.28053012 -12.539259 -0.67779565 1.5108604 1.3625345 1.8399999 1.1581402
-1.5153956 0.5906792 -6.86817 -1.4177958 -0.07726758 0.09539357 -0.22575456 0.21295868
1.8601127 1.2699443 2.64262 1.170954 1.6219207 1.5588363 1.5386353 1.2698711
0.12970582 -0.4175641 0.8085732 0.09747069 -0.057698883 0.020577932 0.5878133 0.056914013
2.0221808 1.9552706 -0.09866859 -0.273845 0.04216442 -0.6298216 -11.380696 -0.935596
-0.25226673 0.78065664 10.913218 0.7940875 -0.21198037 0.037326325 -2.4278283 0.37436405
-0.13997935 -0.32644996 -6.836171 -0.52915776 -0.044933133 -0.29191262 -10.19768 -0.6708617
-1.8639354 0.65357757 -1.1864235 -0.78751504 -5.14513 -2.3796625 -5.2129865 -0.92205673
2.0456054 3.2820802 7.302089 2.7330806 -0.02892198 -0.12859336 0.87293196 -0.052032318
1.4651862 3.4268045 5.462642 2.9837995 2.139827 1.3787032 3.7854915 1.5172727
1.5454308 1.3531146 2.9505758 1.1804888 0.72607195 1.8332276 3.713655 1.6910284
-7.721812 -3.9307587 -7.5660524 -2.127205 -5.5900507 -2.1477818 7.753484 -1.2255411
6.597734 0.8863411 4.9144626 0.5918356 -5.4041557 -0.17949054 13.159621 0.792267
1.8183801 1.8702254 2.4712527 1.4882683 2.8712418 -2.2239048 -10.934513 -2.8655925
2.945619 0.2028576 -10.153843 -1.7215924 -0.2643939 -0.1780874 0.02529481 0.4633803
-1.2218434 0.8823378 -0.0014336763 -0.2985701 1.2313927 2.0512047 5.849304 1.4634844
00000000: f314 f0be b6c9 4240 caad c63f cf82 9cbf
00000010: eeae a03f 2fda d33f cf23 e93f 1cf4 d43f
00000020: bd79 943d 19b4 2b40 4c4f 9d40 18dd b93f
00000030: cd13 e7c0 2705 13c0 b4cd 90c0 f2e6 efbf
00000040: 2ecd d53f 5ada 9e3f 1711 e53f 9dc2 573f
00000050: 77c1 45c0 86b1 37c0 6d25 19c1 16df 41c0
00000060: 4261 1ec0 1336 c9bf 83bf 20c0 c297 c5bf
00000070: 5949 853f 65d0 ee3f 5802 3740 3ef3 e33f
00000080: 5c5d 1341 1d26 4b3f 56ae b6c0 6276 52bf
00000090: 3d9e 9bbf bd81 a9bf 1cf8 0a41 2fc0 bd3f
000000a0: e605 1f40 b1b5 1040 b3d9 5340 d7f5 0340
000000b0: 432f 60be 5727 a13e 4a03 5dbf 3f92 c63e
000000c0: b0b9 963f b22c 933f 6e20 733f d993 1c3f
000000d0: f807 d3bf 6101 fdbe 1a86 e040 4515 173f
000000e0: afcc 8a3f 914a ef3f 6c4e 1b40 2648 8bbe
000000f0: 919b 253f 504d d33f 8733 4e40 a1fc c53f
00000100: a079 9f3f 2267 76bf 0139 7a40 7192 953e
00000110: 5ee0 aac0 4a68 14c0 75ff d5bf ce8e e5be
00000120: 9d9a f83f 3e4a 1840 496e c540 c1ed a63f
00000130: d186 da40 595d 9840 19df 4941 756c 7140
00000140: 281e 2440 86f3 5240 bda0 d840 bfb1 4b40
00000150: 0f69 953f 04ae 8940 8037 4641 65ee 8c40
00000160: ff14 8fc0 1a95 78bf c4e2 bfc0 043c 9cbf
00000170: f938 8540 6737 8a3e 37ad b4c0 78a9 3abe
00000180: cb0d 0041 a782 c03f 2a87 83c0 4fbd 26be
00000190: 2b1b 2440 4c49 5d3f 5831 bd40 b686 2b3f
000001a0: 64af b13f 9520 a03f 5b58 7a40 764f 8a3f
000001b0: 7d6e ee3f d386 953f a7d4 1a40 449a a73f
000001c0: 7c84 293e 532e bd3e 2122 3741 e587 d23e
000001d0: d8b0 9f40 8158 f8bd 67aa 02bf 56d9 09bf
000001e0: 141f e0c0 04d9 793e c1df c43f 13dd 6a3f
000001f0: 7896 573e 81a5 343f 1d53 1e3f 36f9 c8bd
00000200: 2384 cf3c a5a1 8fbe cea0 48c1 0484 2dbf
00000210: e063 c13f 8867 ae3f 1e85 eb3f f03d 943f
00000220: 7cf8 c1bf c136 173f 0cc8 dbc0 557a b5bf
00000230: 773e 9ebd b45d c33d 342c 67be d711 5a3e
00000240: 2c18 ee3f 898d a23f b020 2940 d2e1 953f
00000250: 199b cf3f f387 c73f 00f2 c43f 238b a23f
00000260: 9ad1 043e f6ca d5be a7fe 4e3f b79e c73d
00000270: aa55 6cbd 0d93 a83c ef7a 163f ab1e 693d
00000280: 696b 0140 4f46 fa3f c212 cabd 6935 8cbe
00000290: 99b4 2c3d fd3b 21bf 5517 36c1 3883 6fbf
000002a0: 1b29 81be 1dd9 473f 8a9c 2e41 5249 4b3f
000002b0: 6211 59be 7de3 183d 8a61 1bc0 a5ac bf3e
000002c0: bf56 0fbe 7324 a7be eac1 dac0 e276 07bf
000002d0: ce0b 38bd 9275 95be b329 23c1 98bd 2bbf
000002e0: 6f95 eebf dc50 273f badc 97bf 969a 49bf
000002f0: e8a4 a4c0 644c 18c0 c9d0 a6c0 e90b 6cbf
00000300: 33eb 0240 9a0d 5240 b7aa e940 cbea 2e40
00000310: caed ecbc faad 03be 7878 5f3f d71f 55bd
00000320: 398b bb3f c450 5b40 f7cd ae40 92f6 3e40
00000330: edf2 0840 5979 b03f 7e45 7240 fe35 c23f
00000340: add0 c53f dc32 ad3f 3cd6 3c40 421a 973f
00000350: dadf 393f 34a7 ea3f 86ac 6d40 9e73 d83f
00000360: 1519 f7c0 8d91 7bc0 1a1d f2c0 2024 08c0
00000370: b2e1 b2c0 4275 09c0 8a1c f840 88de 9cbf
00000380: a320 d340 40e7 623f 4743 9d40 8a82 173f
00000390: d8ee acc0 5ecc 37be cf8d 5241 03d2 4a3f
000003a0: aec0 e83f 8c63 ef3f 0129 1e40 937f be3f
000003b0: 6dc2 3740 7554 0ec0 c4f3 2ec1 de65 37c0
000003c0: 0685 3c40 e7b9 4f3e 2476 22c1 245d dcbf
000003d0: a35e 87be 8b5c 36be 1037 cf3c 2f40 ed3e
000003e0: 5d65 9cbf e4e0 613f 32ea bbba 2ede 98be
000003f0: 479e 9d3f f046 0340 802d bb40 7553 bb3f

linear_in.bias f4 [64]
0.8288103 1.0928822 0.925301 3.1241248 1.6213945 4.0136447 -0.7370785 1.3905027
0.24218994 -0.06004389 1.7241915 -0.7822117 1.6588743 1.1033608 0.17848846 1.3424066
2.3142252 2.2137647 -3.329252 -0.051876582 -1.1895045 0.002014363 0.16140477 -1.6814989
-0.33974087 -1.323098 0.78077346 1.1135857 -3.7388048 0.21077424 0.12182573 1.9249698
-4.1040626 1.3547735 3.2643301 -0.48385558 1.2501609 1.5210952 0.85285014 -0.5184093
0.49455968 -4.1638002 -4.3301544 -0.9929328 -2.9860091 -3.501912 -3.5449502 3.2204826
3.3345706 -0.8023771 0.7458611 0.86619264 1.1187258 1.4748478 1.1127008 0.25235063
-0.59748644 1.2214738 1.1006548 -2.1551845 2.0391862 1.3248254 2.1386366 -0.16142166
00000000: e92c 543f 90e3 8b3f 87e0 6c3f a9f1 4740
00000010: db89 cf3f c76f 8040 2db1 3cbf fefb b13f
00000020: a400 783e 95f0 75bd 4fb2 dc3f 073f 48bf
00000030: fe55 d43f ed3a 8d3f aec5 363e fbd3 ab3f
00000040: 441c 1440 52ae 0d40 7712 55c0 8a7c 54bd
00000050: af41 98bf 6703 043b 4b47 253e 5b3b d7bf
00000060: 84f2 adbe 465b a9bf c5e0 473f fa89 8e3f
00000070: 9448 6fc0 34d5 573e c57f f93d 6965 f63f
00000080: 7b54 83c0 3869 ad3f c9ea 5040 ebbb f7be
00000090: 4605 a03f 3fb3 c23f 6354 5a3f 79b6 04bf
000000a0: ed36 fd3e da3d 85c0 a090 8ac0 d830 7ebf
000000b0: c61a 3fc0 541f 60c0 77e0 62c0 631c 4e40
000000c0: 9b69 5540 9668 4dbf c1f0 3e3f cdbe 5d3f
000000d0: 6832 8f3f d0c7 bc3f fb6c 8e3f 1a34 813e
000000e0: dff4 18bf 4159 9c3f 42e2 8c3f 8bee 09c0
000000f0: 0782 0240 e193 a93f 6cdf 0840 b84b 25be

linear_out.weight f4 [2, 64]
1.7149822 1.5446312 2.4946847 3.5012207 2.01241 5.38338 3.1703632 1.9127598
3.3669808 -0.38222596 3.5821428 0.31600958 1.9266597 -7.736384 1.0291048 1.9286485
-2.8879545 3.6583045 7.785773 -9.894687 -18.300926 -7.553298 -12.827554 5.510168
3.93095 3.919673 1.1538205 1.7856398 -15.602221 -14.31062 -10.553214 1.9985476
-21.371939 1.8907295 3.8415015 0.016399236 1.6973674 2.0598211 0.39004156 -0.05552519
-6.6944537 -22.487293 -10.120731 -3.300831 -5.906777 -8.7467785 -3.9986293 5.648565
6.387005 0.35105366 5.9408937 2.0814497 1.6118315 2.0712268 6.698172 -3.356197
-22.369013 7.3586965 1.7332168 -11.984761 -3.8080368 0.90511787 1.7867842 2.1892865
1.4127156 1.6684903 1.0027596 6.0628643 1.5990672 3.552014 3.978032 1.8442408
6.818781 -2.5589132 5.3896356 0.0410798 1.3705868 -5.9971514 0.74615425 1.7444547
1.1034025 2.2025557 7.593833 -5.548345 -16.783419 -7.303141 -16.665455 5.3857107
4.068243 -3.2609541 1.7104528 1.8856049 -13.341169 -21.884647 -8.359465 1.2578049
-15.301677 1.8899364 1.7717603 -0.01609764 1.7775232 1.9797014 0.6115084 0.10525435
-2.6506264 -7.892772 -20.652668 -1.9217762 -4.5736628 -23.406353 -5.0535917 5.5277886
4.8760953 -0.04806321 8.994642 2.8121474 1.9778634 1.8224449 4.004093 1.031836
-22.204273 5.494577 2.077145 -13.136642 -5.4930086 0.9956231 1.5077481 0.83671033
00000000: 8984 db3f 7ab6 c53f eaa8 1f40 0014 6040
00000010: 53cb 0040 a644 ac40 3be7 4a40 50d5 f43f
00000020: 9d7c 5740 1fb3 c3be d441 6540 02cc a13e
00000030: c99c f63f 7590 f7c0 b5b9 833f f4dd f63f
00000040: 3fd4 38c0 a921 6a40 0d25 f940 a350 1ec1
00000050: 4c68 92c1 9eb4 f1c0 a93d 4dc1 4c53 b040
00000060: af94 7b40 ecdb 7a40 64b0 933f d88f e43f
00000070: b2a2 79c1 4df8 64c1 f7d9 28c1 68d0 ff3f
00000080: bbf9 aac1 6d03 f23f 29db 7540 b157 863c
00000090: 5643 d93f 1cd4 0340 87b3 c73e 626e 63bd
000000a0: f738 d6c0 fae5 b3c1 84ee 21c1 d140 53c0
000000b0: 5104 bdc0 cef2 0bc1 8be9 7fc0 0bc1 b440
000000c0: 5862 cc40 4ebd b33e cd1b be40 7936 0540
000000d0: 7f50 ce3f fb8e 0440 6d57 d640 efcb 56c0
000000e0: bdf3 b2c1 717a eb40 0cda dd3f 95c1 3fc1
000000f0: e0b6 73c0 ceb5 673f 58b5 e43f 451d 0c40
00000100: ddd3 b43f 1791 d53f 6d5a 803f fc02 c240
00000110: 3cae cc3f 3354 6340 1498 7e40 1510 ec3f
00000120: 7433 da40 3cc5 23c0 e577 ac40 4b43 283d
00000130: 636f af3f aae8 bfc0 f703 3f3f 4b4a df3f
00000140: 4b3c 8d3f acf6 0c40 ae00 f340 0b8c b1c0
00000150: 7144 86c1 55b3 e9c0 da52 85c1 be57 ac40
00000160: 0c2f 8240 79b3 50c0 1ef0 da3f 805b f13f
00000170: 6e75 55c1 c213 afc1 5ec0 05c1 c0ff a03f
00000180: abd3 74c1 70e9 f13f 0bc9 e23f 33df 83bc
00000190: e185 e33f db66 fd3f d18b 1c3f 988f d73d
000001a0: dda3 29c0 9791 fcc0 aa38 a5c1 c3fc f5bf
000001b0: 725b 92c0 3640 bbc1 06b7 a1c0 a5e3 b040
000001c0: f908 9c40 eedd 44bd 0eea 0f41 39fa 3340
000001d0: a12a fd3f e045 e93f 8821 8040 3413 843f
000001e0: 5aa2 b1c1 93d3 af40 f2ef 0440 b02f 52c1
000001f0: bac6 afc0 28e1 7e3f e4fd c03f a632 563f

linear_out.bias f4 [2]
1.9226067 2.101363
00000000: fa17 f63f bb7c 0640
