course4/examples/algo/homework/critic_10000.pth (torch, 7327 bytes, 4 tensors)

linear_in.weight f4 [64, 18]
9.70688 4.5344915 -8.011165 2.0700486 -7.063383 10.057501 -3.2256167 3.5070796
0.8711222 1.7180442 -0.50575876 7.3406706 -2.1979442 5.611583 1.8230628 5.3079
1.1930786 0.22775099 0.98056996 0.71853 1.5644815 1.770311 -0.51887643 3.5597885
1.8319556 1.1124649 0.14899708 1.2866743 -0.43479308 1.2308148 -1.827924 0.79046017
1.9096305 2.199121 1.500768 1.25037 -0.070429236 0.30723453 5.8254642 -1.317705
5.7500644 -4.109518 1.2694148 2.6034338 -0.32298788 0.9919261 1.0874532 0.46998492
-0.50299704 0.16617496 0.47397724 0.39094797 0.3927283 1.4634453 -0.048748054 0.17447184
-2.1764765 1.9133679 -3.1582515 0.42154124 -0.087810434 -0.10743504 -0.24153939 0.08661535
-0.0025376175 0.17921257 0.14585492 -0.013488259 -0.14757061 -0.1111292 0.045462605 -0.36069447
-0.12996134 -0.6079733 -0.30078065 -0.0061976733 -0.5849179 -0.22593944 -3.2642715 -0.5628449
-3.0301294 0.36667973 -1.6564244 -0.8419596 -4.972011 0.8007817 -0.42289796 -0.4866645
-0.24192405 -1.962967 1.289378 1.19757 0.15291499 -0.45302248 -3.3369153 2.1378906
-1.4557221 1.5036229 1.1327895 0.6642777 1.6824026 1.1784852 0.9230379 1.2597381
-0.8530608 1.9345874 0.44005227 1.208248 -0.08089428 -0.12710343 0.21658565 0.24307926
3.9043245 -0.16893263 -0.23669082 -0.058994062 -0.463386 -0.15791376 0.016877975 -0.22601837
-0.235341 -0.115200415 -0.18294583 -0.1168153 -0.07055603 -0.25096992 2.2468467 0.8403879
-0.028082725 -1.2984394 -3.0920706 1.5063189 1.4067936 2.4053717 0.38218224 1.2365292
1.5695075 0.23621073 2.5049357 1.6496427 0.5593129 1.3742251 1.1141362 0.7781494
0.14256711 -0.29401407 -0.08487965 0.12006928 -0.027162697 -0.14356017 0.103674814 0.05162885
-0.23471479 -0.21348143 -0.44076198 -0.4249874 -0.53946686 -0.063540526 -0.19944616 -0.45459288
-0.18762276 -0.05576834 -0.38556093 -0.19044973 -0.8262421 -0.24245752 1.7314094 -0.29076603
-0.35862112 -0.33771992 0.23324703 -0.03562423 -0.50799435 -0.1507819 0.018341227 0.016066052
-0.2903762 -0.20375717 0.07042229 -0.120799504 0.04113783 0.60097784 -1.1964215 1.696219
0.115088865 4.7331476 2.9129708 0.18940493 2.9097772 1.3940772 1.04964 0.96200097
2.3074224 1.3055788 1.6476266 1.4492863 0.31775287 1.5080723 0.046351664 0.5862799
2.4110873 1.410341 3.9662745 -62.440556 0.82831 1.3154281 0.65515536 0.9489034
1.7414172 0.16383207 0.5862002 0.8415205 0.45318422 0.7509848 0.8214978 1.102323
-1.2723534 0.2348365 -1.1724656 -3.1810696 -1.6124567 -0.3781071 -3.1477482 -0.6139224
-2.2060626 -1.7070546 0.8741564 -4.942896 0.6143815 -1.7427657 -0.12744148 -0.38359818
-0.6010308 0.2828538 0.6170139 1.5606829 -1.735849 -3.197649 -4.074578 1.1194937
-1.6845676 -3.9439223 -1.5330002 -0.7539444 0.08957284 0.5597106 -6.1013355 0.18158184
-6.9253917 -5.3653502 -3.5622072 -1.9644687 0.29147193 0.37709272 -1.5567619 2.9655776
00000000: 614f 1b41 8e1a 9140 bb2d 00c1 ad7b 0440
00000010: 3c07 e2c0 86eb 2041 8170 4ec0 fe73 6040
00000020: dd01 5f3f dfe8 db3f 6879 01bf c6e6 ea40
00000030: 1eab 0cc0 1792 b340 1f5a e93f 51da a940
00000040: cdb6 983f 8e37 693e a206 7b3f 95f1 373f
00000050: ee40 c83f 8d99 e23f 16d5 04bf 93d3 6340
00000060: 857d ea3f 4065 8e3f b192 183e beb1 a43f
00000070: 339d debe 578b 9d3f 6af9 e9bf 995b 4a3f
00000080: c66e f43f 66be 0c40 2a19 c03f 200c a03f
00000090: 343d 90bd d84d 9d3e 346a ba40 8faa a8bf
000000a0: 8700 b840 2c81 83c0 2f7c a23f a99e 2640
000000b0: ab5e a5be deee 7d3f ab31 8b3f dda1 f03e
000000c0: 6ac4 00bf c529 2a3e 25ad f23e 552a c83e
000000d0: af13 c93e 2d52 bb3f 0aac 47bd bfa8 323e
000000e0: 644b 0bc0 3de9 f43f cb20 4ac0 41d4 d73e
000000f0: f5d5 b3bd e706 dcbd 1a56 77be 6363 b13d
00000100: 284e 26bb 8083 373e fe5a 153e dcfd 5cbc
00000110: c01c 17be b597 e3bd ff36 3a3d f2ac b8be
00000120: 9614 05be 23a4 1bbf ecff 99be da15 cbbb
00000130: 2ebd 15bf ab5c 67be d3e9 50c0 9a16 10bf
00000140: a4ed 41c0 72bd bb3e b705 d4bf aa8a 57bf
00000150: b71a 9fc0 0800 4d3f 1586 d8be 172c f9be
00000160: f0ba 77be 8142 fbbf 570a a53f f949 993f
00000170: bf95 1c3e 90f2 e7be 0590 55c0 33d3 0840
00000180: 1a55 babf b776 c03f 3fff 903f 1a0e 2a3f
00000190: f858 d73f 9ad8 963f 364c 6c3f 193f a13f
000001a0: 3162 5abf 8fa0 f73f 884e e13e dfa7 9a3f
000001b0: e6ab a5bd 6727 02be a1c8 5d3e c5e9 783e
000001c0: 74e0 7940 adfc 2cbe 145f 72be c2a3 71bd
000001d0: ee40 edbe 25b4 21be ae43 8a3c 5c71 67be
000001e0: 3bfd 70be 32ee ebbd 2756 3bbe dc3c efbd
000001f0: ae7f 90bd 217f 80be 56cc 0f40 a923 573f
00000200: be0d e6bc 4333 a6bf 7ce4 45c0 0fcf c03f
00000210: d011 b43f 9cf1 1940 64ad c33e 9746 9e3f
00000220: 9fe5 c83f 3ae1 713e de50 2040 7e27 d33f
00000230: 212f 0f3f 9ce6 af3f 049c 8e3f cd34 473f
00000240: 1dfd 113e 0389 96be 62d5 adbd e2e6 f53d
00000250: 4e84 debc 7001 13be 7653 d43d c678 533d
00000260: 1359 70be e09a 5abe 8eab e1be f397 d9be
00000270: 801a 0abf 8921 82bd 9d3b 4cbe 66c0 e8be
00000280: 2e20 40be 586d 64bd 3e68 c5be 4105 43be
00000290: 9a84 53bf c946 78be d39e dd3f 49df 94be
000002a0: 309d b7be a0e9 acbe 4fd8 6e3e b6ea 11bd
000002b0: eb0b 02bf 9266 1abe 5740 963c f49c 833c
000002c0: 30ac 94be b8a5 50be 9039 903d bb65 f7bd
000002d0: 2480 283d afd9 193f 5724 99bf b41d d93f
000002e0: b6b3 eb3d f275 9740 1d6e 3a40 5ef3 413e
000002f0: ca39 3a40 1f71 b23f 9b5a 863f b245 763f
00000300: cfac 1340 351d a73f 6ee5 d23f 3782 b93f
00000310: 81b0 a23e 8308 c13f 3edb 3d3d 7116 163f
00000320: 414f 1a40 0e86 b43f 71d7 7d40 21c3 79c2
00000330: 200c 543f f35f a83f 43b8 273f 55eb 723f
00000340: c2e6 de3f 98c3 273e 3711 163f e36d 573f
00000350: c307 e83e 8a40 403f ae4d 523f ec18 8d3f
00000360: 7adc a2bf fb78 703e 5a13 96bf a596 4bc0
00000370: fb64 cebf 4197 c1be b574 49c0 052a 1dbf
00000380: 2130 0dc0 c480 dabf b7c8 5f3f 342c 9ec0
00000390: 1b48 1d3f f212 dfbf 0580 02be fb66 c4be
000003a0: 28dd 19bf 37d2 903e 9ff4 1d3f 75c4 c73f
000003b0: 4d30 debf 48a6 4cc0 f162 82c0 924b 8f3f
000003c0: e99f d7bf 3969 7cc0 5a39 c4bf 8002 41bf
000003d0: f771 b73d 3249 0f3f 243e c3c0 97f0 393e
000003e0: cf9c ddc0 f3b0 abc0 34fb 63c0 b673 fbbf
000003f0: cf3b 953e 4c12 c13e f943 c7bf 06cc 3d40

linear_in.bias f4 [64]
4.280216 5.6404104 -2.2409756 1.6573559 -0.68027335 3.0861232 1.1336145 5.124054
-0.47673035 5.5877438 4.574046 7.452815 -1.0365322 -3.2181132 0.8673287 0.86744165
1.0988047 -0.50167376 8.202673 0.77042764 8.043131 3.7556214 1.8631512 0.16247559
5.912506 5.249505 4.574629 5.189378 0.5754275 3.597728 3.8915157 0.070606805
-0.9941981 2.3816006 5.818586 4.0297074 3.2590284 2.7328618 5.860196 1.1646837
-4.757694 8.751793 -0.69654495 1.7931981 -1.8112581 4.5263853 -0.43925828 -0.120927885
-0.10931132 -5.2087817 -1.7808113 6.467759 -2.6079464 -0.50471276 -5.88075 -1.4494761
1.8011532 -2.4745846 1.9299637 -2.8771107 -4.628361 -2.904096 6.1849227 -1.078504
00000000: 88f7 8840 3e7e b440 256c 0fc0 3d24 d43f
00000010: 6526 2ebf 0b83 4540 481a 913f 40f8 a340
00000020: 0016 f4be ccce b240 965e 9240 767d ee40
00000030: 16ad 84bf 91f5 4dc0 4109 5e3f a810 5e3f
00000040: a2a5 8c3f b16d 00bf 263e 0341 bf3a 453f
00000050: aab0 0041 1a5c 7040 bd7b ee3f 0060 263e
00000060: 4033 bd40 f2fb a740 5c63 9240 620f a640
00000070: 374f 133f 2d41 6640 980e 7940 4d9a 903d
00000080: c483 7ebf 256c 1840 db31 ba40 5df3 8040
00000090: ec93 5040 35e7 2e40 ba86 bb40 5b14 953f
000000a0: 073f 98c0 5807 0c41 c550 32bf 8487 e53f
000000b0: 4ed7 e7bf 26d8 9040 76e6 e0be 0aa9 f7bd
000000c0: 9dde dfbd 57ae a6c0 a0f1 e3bf e2f7 ce40
000000d0: 98e8 26c0 db34 01bf 1b2f bcc0 6f88 b9bf
000000e0: 308c e63f 985f 1ec0 0d09 f73f 9522 38c0
000000f0: 891b 94c0 b5dc 39c0 e3ea c540 6b0c 8abf

linear_out.weight f4 [4, 64]
-1.0949608 3.406774 -2.857564 12.325996 3.5247893 3.420997 18.483725 2.3674738
-0.11390169 2.781658 -0.033581574 -1.1552277 4.545897 -1.6658151 -6.747414 2.593133
4.4247975 0.027701737 -1.2495499 -2.190456 3.9908848 -0.5073812 -5.293666 -0.6137823
-2.649671 6.779248 3.4899218 5.624025 4.0277147 -0.30439445 2.9735444 0.059148144
-2.5587587 3.386419 -4.249283 3.4354558 -7.703633 0.5404823 1.6402422 3.511715
3.8655417 -2.3724139 -1.3564203 2.83669 -5.6259747 2.1387339 -6.161129 0.10398561
0.12474044 -2.2964015 0.47699016 -5.1309485 -1.9774472 0.11010876 -3.2472517 2.026489
-2.8960729 -3.5099745 3.6764266 3.9684515 -3.9305897 -4.412088 3.8551662 0.14671037
-0.9051674 2.9835677 -3.2971542 8.277397 1.8751342 3.6500304 16.191553 1.908983
0.2721517 4.2809553 -0.9506555 -1.0545789 1.7042607 -0.71901834 -9.06069 3.292744
4.752619 -0.1251642 -0.79861337 -1.2727613 3.928495 -2.3896582 -3.1254494 -1.7773658
-4.128255 3.1577487 4.657943 3.860063 4.2580743 0.038607206 2.4940772 -0.10643862
6.0740194 0.8380788 -4.412591 2.6369035 -6.9858036 0.8357044 2.1798432 5.263381
-1.1690724 -0.75374436 -2.7730646 4.272132 -4.0685477 1.9810708 -5.232562 0.057441134
0.14732517 -3.4128666 -5.0123835 -1.5841881 -3.7138035 -0.028256342 -2.2795181 1.9325227
-2.233412 -1.1098471 1.3941535 4.9333115 1.4489765 1.3777533 3.1194913 3.3426208
-1.291319 4.242575 -3.9186692 7.252542 4.5995536 3.5643592 16.474205 2.2648327
-0.22136013 10.1308155 -1.382763 -1.0057698 -4.0914497 -2.5873494 -6.423042 6.98819
0.92794496 -0.15670408 -1.5732974 -3.6333942 4.1073394 -1.3973541 -6.9328356 -3.0216088
-2.12824 5.178819 2.7731075 4.7967634 5.840914 -0.6632016 2.4654253 0.12126711
4.1429267 1.9895421 -3.6319149 3.7174842 -8.017517 0.68188334 2.9591935 4.590053
-2.884514 -1.3303939 -2.3193486 3.858379 -4.7834806 1.9398118 -7.754329 0.3076514
-0.04080917 -1.5997984 -3.4051828 -6.089719 -0.097300105 -0.030318232 -3.6569552 -3.8315713
-1.9629134 -1.8479943 4.555844 4.4303803 -7.310023 -0.03222983 2.6596065 3.1081212
-1.7238917 2.6030905 -3.0221245 13.522297 4.2149167 4.159172 17.3511 2.514064
0.09746879 10.351647 -4.079083 -1.6652995 4.5981894 2.3682806 -2.863088 6.019192
2.1663241 -0.18515506 -1.2311774 -2.894481 2.3297288 2.8050518 -2.4030433 -3.773154
-2.4988704 7.493986 3.7739785 4.3949924 3.3295395 -0.80902284 3.8900685 -0.0932506
6.0214763 4.0799646 -1.2695225 3.2811458 -4.514544 3.024683 0.3880202 4.4750857
-3.898167 0.40881586 -2.5029023 3.5068848 -1.2733657 1.4571091 -0.7820761 -0.16825229
0.02663847 3.4242144 -1.0030329 -4.036476 -1.0167949 0.012310073 0.43354762 -4.0274935
-1.4328382 -3.7899933 3.1869426 6.1339154 -3.8112674 -7.644249 2.8428013 -3.9748752
00000000: ad27 8cbf 9608 5a40 54e2 36c0 4837 4541
00000010: 2696 6140 9df1 5a40 abde 9341 b184 1740
00000020: 4a45 e9bd af06 3240 d58c 09bd 80de 93bf
00000030: fd77 9140 6e39 d5bf d1ea d7c0 e4f5 2540
00000040: f197 8d40 c1ee e23c 40f1 9fbf 6e30 0cc0
00000050: a86a 7f40 bce3 01bf b665 a9c0 d620 1dbf
00000060: 3694 29c0 9aef d840 e15a 5f40 03f8 b340
00000070: 0ae3 8040 97d9 9bbe 8d4e 3e40 5345 723d
00000080: b4c2 23c0 17bb 5840 20fa 87c0 82de 5b40
00000090: 2984 f6c0 0c5d 0a3f 75f3 d13f f0bf 6040
000000a0: 0965 7740 a1d5 17c0 2e9f adbf 548c 3540
000000b0: fc07 b4c0 04e1 0840 f827 c5c0 68f6 d43d
000000c0: ea77 ff3d 3ef8 12c0 0e38 f43e bb30 a4c0
000000d0: fd1c fdbf b480 e13d f9d2 4fc0 ffb1 0140
000000e0: 4259 39c0 6ca3 60c0 934a 6b40 1cfb 7d40
000000f0: c88e 7bc0 d32f 8dc0 0bbb 7640 3e3b 163e
00000100: 0db9 67bf c6f2 3e40 9304 53c0 3870 0441
00000110: 6604 f03f 199a 6940 4d88 8141 8e59 f43f
00000120: 7857 8b3e 96fd 8840 295e 73bf 71fc 86bf
00000130: 3725 da3f 9611 38bf 96f8 10c1 51bc 5240
00000140: 7415 9840 0b2b 00be ed71 4cbf d8e9 a2bf
00000150: 766c 7b40 29f0 18c0 5d07 48c0 b980 e3bf
00000160: aa1a 84c0 8e18 4a40 de0d 9540 460b 7740
00000170: 2542 8840 9722 1e3d f69e 1f40 7efc d9bd
00000180: 5e5e c240 558c 563f f233 8dc0 07c3 2840
00000190: b48b dfc0 b9f0 553f 8d82 0b40 9e6d a840
000001a0: 2aa4 95bf 64f5 40bf e479 31c0 4eb5 8840
000001b0: 8b31 82c0 ba93 fd3f 2671 a7c0 6547 6b3d
000001c0: 69dc 163e 686c 5ac0 7265 a0c0 adc6 cabf
000001d0: f5ae 6dc0 d879 e7bc a0e3 11c0 e75c f73f
000001e0: 39f0 0ec0 780f 8ebf 9f73 b23f b0dd 9d40
000001f0: 1078 b93f 385a b03f bfa5 4740 80ed 5540
00000200: f149 a5bf 2dc3 8740 7acb 7ac0 d314 e840
00000210: 8b2f 9340 761e 6440 2ccb 8341 05f3 1040
00000220: 3bac 62be d217 2241 61fe b0bf 11bd 80bf
00000230: 28ed 82c0 2297 25c0 8f89 cdc0 419f df40
00000240: cd8d 6d3f 0977 20be cf61 c9bf 8889 68c0
00000250: 536f 8340 80dc b2bf cad9 ddc0 0a62 41c0
00000260: 1635 08c0 e3b8 a540 987a 3140 167f 9940
00000270: c4e8 ba40 94c7 29bf 87c9 1d40 e45a f83d
00000280: db92 8440 51a9 fe3f 4b71 68c0 43eb 6d40
00000290: c047 00c1 e88f 2e3f 6d63 3d40 b7e1 9240
000002a0: e19b 38c0 594a aabf 3570 14c0 aeef 7640
000002b0: 4612 99c0 c14b f83f 7723 f8c0 7c84 9d3e
000002c0: 8427 27bd 32c6 ccbf 84ee 59c0 fade c2c0
000002d0: 4745 c7bd f15d f8bc 8e0b 6ac0 7738 75c0
000002e0: bf40 fbbf 148b ecbf 79c9 9140 adc5 8d40
000002f0: b5eb e9c0 6d03 04bd fe36 2a40 75eb 4640
00000300: 7ca8 dcbf 0999 2640 7d6a 41c0 545b 5841
00000310: 99e0 8640 f017 8540 0ecf 8a41 6de6 2040
00000320: b89d c73d 59a0 2541 d987 82c0 8928 d5bf
00000330: 5e24 9340 e991 1740 d53c 37c0 399d c040
00000340: 0ea5 0a40 4a99 3dbe 3997 9dbf 2d3f 39c0
00000350: 471a 1540 f885 3340 76cb 19c0 5b7b 71c0
00000360: 7eed 1fc0 bcce ef40 dd88 7140 c7a3 8c40
00000370: 2d17 5540 1f1c 4fbf e2f6 7840 2cfa bebd
00000380: efaf c040 128f 8240 b77f a2bf 4bfe 5140
00000390: 2577 90c0 6894 4140 95aa c63e e733 8f40
000003a0: 917b 79c0 5050 d13e 8d2f 20c0 cd70 6040
000003b0: a6fd a2bf 8d82 ba3f 2436 48bf 544a 2cbe
000003c0: ec38 da3c 5426 5b40 6263 80bf d02a 81c0
000003d0: 5626 82bf 30b0 493c f4f9 dd3e 3ae1 80c0
000003e0: 3e67 b7bf 408f 72c0 def6 4b40 0949 c440
000003f0: ceeb 73c0 b09d f4c0 75f0 3540 5b64 7ec0

linear_out.bias f4 [4]
5.3054876 3.05149 6.45751 5.1282854
00000000: 8ec6 a940 9d4b 4340 eca3 ce40 ea1a a440
